…
pe Param #\n=====================================================================\nHittersModel [175, 19] [175] --",
    "metadata": {
      "producer": "macOS Version 13.5 (Build 22G74) Quartz PDFContext",
      "creator": "Adobe InDesign 17.4 (Windows)",
      "creationdate": "D:20230814190847Z00'00'",
      "moddate": "D:20230814190847Z00'00'",
      "source": "/Users/zeeshanabbasi/Desktop/pdf q&a chatbot/data/raw_pdfs/ISLP_website.pdf",
      "total_pages": 613,
      "page": 446,
      "page_label": "447"
    }
  },
  {
    "text": "HittersModel [175, 19] [175] --\nFlatten: 1-1 [175, 19] [175, 19] --\nSequential: 1-2 [175, 19] [175, 1] --\nLinear: 2-1 [175, 19] [175, 50] 1,000\nReLU: 2-2 [175, 50] [175, 50] --\nDropout: 2-3 [175, 50] [175, 50] --\nLinear: 2-4 [175, 50] [175, 1] 51\n=====================================================================\nTotal params: 1,051\nTrainable params: 1,051\nWe have truncated the end of the output slightly, here and in subsequent\nuses.",
    "metadata": {
      "producer": "macOS Version 13.5 (Build 22G74) Quartz PDFContext",
      "creator": "Adobe InDesign 17.4 (Windows)",
      "creationdate": "D:20230814190847Z00'00'",
      "moddate": "D:20230814190847Z00'00'",
…
      "moddate": "D:20230814190847Z00'00'",
      "source": "/Users/zeeshanabbasi/Desktop/pdf q&a chatbot/data/raw_pdfs/ISLP_website.pdf",
      "total_pages": 613,
      "page": 451,
      "page_label": "452"
    }
  },
  {
    "text": "446 10. Deep Learning\nIn[39]: summary(mnist_model,\ninput_data=X_,\ncol_names=[ 'input_size' ,\n'output_size' ,\n'num_params' ])\nOut[39]: =====================================================================\nLayer (type:depth-idx) Input Shape Output Shape Param #\n=====================================================================\nMNISTModel [256, 1, 28, 28] [256, 10] --\nSequential: 1-1 [256, 1, 28, 28] [256, 10] --\nSequential: 2-1 [256, 1, 28, 28] [256, 256] --",
    "metadata": {
      "producer": "macOS Version 13.5 (Build 22G74) Quartz PDFContext",
      "creator": "Adobe InDesign 17.4 (Windows)",
      "creationdate": "D:20230814190847Z00'00'",
      "moddate": "D:20230814190847Z00'00'",
      "source": "/Users/zeeshanabbasi/Desktop/pdf q&a chatbot/data/raw_pdfs/ISLP_website.pdf",
      "total_pages": 613,
      "page": 452,
      "page_label": "453"
    }
  },
  {
    "text": "Sequential: 2-1 [256, 1, 28, 28] [256, 256] --\nFlatten: 3-1 [256, 1, 28, 28] [256, 784] --\nLinear: 3-2 [256, 784] [256, 256] 200,960\nReLU: 3-3 [256, 256] [256, 256] --\nDropout: 3-4 [256, 256] [256, 256] --\nSequential: 2-2 [256, 256] [256, 128] --\nLinear: 3-5 [256, 256] [256, 128] 32,896\nReLU: 3-6 [256, 128] [256, 128] --\nDropout: 3-7 [256, 128] [256, 128] --\nLinear: 2-3 [256, 128] [256, 10] 1,290\n=====================================================================\nTotal params: 235,146",
    "metadata": {
      "producer": "macOS Version 13.5 (Build 22G74) Quartz PDFContext",
      "creator": "Adobe InDesign 17.4 (Windows)",
      "creationdate": "D:20230814190847Z00'00'",
      "moddate": "D:20230814190847Z00'00'",
      "source": "/Users/zeeshanabbasi/Desktop/pdf q&a chatbot/data/raw_pdfs/ISLP_website.pdf",
…
=============\nLayer (type:depth-idx) Input Shape Output Shape Param #",
    "metadata": {
      "producer": "macOS Version 13.5 (Build 22G74) Quartz PDFContext",
      "creator": "Adobe InDesign 17.4 (Windows)",
      "creationdate": "D:20230814190847Z00'00'",
      "moddate": "D:20230814190847Z00'00'",
      "source": "/Users/zeeshanabbasi/Desktop/pdf q&a chatbot/data/raw_pdfs/ISLP_website.pdf",
      "total_pages": 613,
      "page": 456,
      "page_label": "457"
    }
  },
  {
    "text": "======================================================================\nCIFARModel [128, 3, 32, 32] [128, 100] --\nSequential: 1-1 [128, 3, 32, 32] [128, 256, 2, 2] --\nBuildingBlock: 2-1 [128, 3, 32, 32] [128, 32, 16, 16] --\nConv2d: 3-1 [128, 3, 32, 32] [128, 32, 32, 32] 896\nReLU: 3-2 [128, 32, 32, 32] [128, 32, 32, 32] --\nMaxPool2d: 3-3 [128, 32, 32, 32] [128, 32, 16, 16] --\nBuildingBlock: 2-2 [128, 32, 16, 16] [128, 64, 8, 8] --\nConv2d: 3-4 [128, 32, 16, 16] [128, 64, 16, 16] 18,496",
    "metadata": {
      "producer": "macOS Version 13.5 (Build 22G74) Quartz PDFContext",
      "creator": "Adobe InDesign 17.4 (Windows)",
      "creationdate": "D:20230814190847Z00'00'",
      "moddate": "D:20230814190847Z00'00'",
      "source": "/Users/zeeshanabbasi/Desktop/pdf q&a chatbot/data/raw_pdfs/ISLP_website.pdf",
      "total_pages": 613,
      "page": 456,
      "page_label": "457"
    }
  },
  {
    "text": "ReLU: 3-5 [128, 64, 16, 16] [128, 64, 16, 16] --\nMaxPool2d: 3-6 [128, 64, 16, 16] [128, 64, 8, 8] --\nBuildingBlock: 2-3 [128, 64, 8, 8] [128, 128, 4, 4] --\nConv2d: 3-7 [128, 64, 8, 8] [128, 128, 8, 8] 73,856\nReLU: 3-8 [128, 128, 8, 8] [128, 128, 8, 8] --\nMaxPool2d: 3-9 [128, 128, 8, 8] [128, 128, 4, 4] --\nBuildingBlock: 2-4 [128, 128, 4, 4] [128, 256, 2, 2] --\nConv2d: 3-10 [128, 128, 4, 4] [128, 256, 4, 4] 295,168\nReLU: 3-11 [128, 256, 4, 4] [128, 256, 4, 4] --",
    "metadata": {
      "producer": "macOS Version 13.5 (Build 22G74) Quartz PDFContext",
      "creator": "Adobe InDesign 17.4 (Windows)",
      "creationdate": "D:20230814190847Z00'00'",
      "moddate": "D:20230814190847Z00'00'",
      "source": "/Users/zeeshanabbasi/Desktop/pdf q&a chatbot/data/raw_pdfs/ISLP_website.pdf",
      "total_pages": 613,
      "page": 456,
      "page_label": "457"
    }
  },
  {
    "text": "ReLU: 3-11 [128, 256, 4, 4] [128, 256, 4, 4] --\nMaxPool2d: 3-12 [128, 256, 4, 4] [128, 256, 2, 2] --\nSequential: 1-2 [128, 1024] [128, 100] --\nDropout: 2-5 [128, 1024] [128, 1024] --\nLinear: 2-6 [128, 1024] [128, 512] 524,800",
    "metadata": {
      "producer": "macOS Version 13.5 (Build 22G74) Quartz PDFContext",
      "creator": "Adobe InDesign 17.4 (Windows)",
      "creationdate": "D:20230814190847Z00'00'",
      "moddate": "D:20230814190847Z00'00'",
      "source": "/Users/zeeshanabbasi/Desktop/pdf q&a chatbot/data/raw_pdfs/ISLP_website.pdf",
      "total_pages": 613,
      "page": 456,
      "page_label": "457"
    }
  },
  {
    "text": "10.9 Lab: Deep Learning 451\nReLU: 2-7 [128, 512] [128, 512] --\nLinear: 2-8 [128, 512] [128, 100] 51,300\n======================================================================\nTotal params: 964,516\nTrainable params: 964,516\nThe total number of trainable parameters is 964,516. By studying the size\nof the parameters, we can see that the channels halve in both dimensions\nafter each of these max-pooling operations. After the last of these we have",
    "metadata": {
      "producer": "macOS Version 13.5 (Build 22G74) Quartz PDFContext",
…
