…
      "producer": "macOS Version 14.4.1 (Build 23E224) Quartz PDFContext",
      "creator": "LaTeX with hyperref",
      "creationdate": "D:20240401203932Z00'00'",
      "moddate": "D:20240401203932Z00'00'",
      "source": "/Users/zeeshanabbasi/Desktop/pdf q&a chatbot/data/raw_pdfs/ISLRv2_corrected_June_2023.pdf",
      "total_pages": 615,
      "page": 457,
      "page_label": "458"
    }
  },
  {
    "text": "sure we got it all right.\n> summary (modelnn )\n________________________________________________________________\nLayer (type) Output Shape Param #\n================================================================\ndense (Dense) (None, 256) 200960\n________________________________________________________________\ndropout (Dropout) (None, 256) 0\n________________________________________________________________\ndense_1 (Dense) (None, 128) 32896",
    "metadata": {
      "producer": "macOS Version 14.4.1 (Build 23E224) Quartz PDFContext",
      "creator": "LaTeX with hyperref",
      "creationdate": "D:20240401203932Z00'00'",
      "moddate": "D:20240401203932Z00'00'",
      "source": "/Users/zeeshanabbasi/Desktop/pdf q&a chatbot/data/raw_pdfs/ISLRv2_corrected_June_2023.pdf",
      "total_pages": 615,
      "page": 457,
      "page_label": "458"
    }
  },
  {
    "text": "dense_1 (Dense) (None, 128) 32896\n________________________________________________________________\ndropout_1 (Dropout) (None, 128) 0\n________________________________________________________________\ndense_2 (Dense) (None, 10) 1290\n================================================================\nTotal params: 235,146\nTrainable params: 235,146\nNon-trainable params: 0\nThe parameters for each layer include a bias term, which results in a",
    "metadata": {
      "producer": "macOS Version 14.4.1 (Build 23E224) Quartz PDFContext",
      "creator": "LaTeX with hyperref",
      "creationdate": "D:20240401203932Z00'00'",
      "moddate": "D:20240401203932Z00'00'",
…
      "producer": "macOS Version 14.4.1 (Build 23E224) Quartz PDFContext",
      "creator": "LaTeX with hyperref",
      "creationdate": "D:20240401203932Z00'00'",
      "moddate": "D:20240401203932Z00'00'",
      "source": "/Users/zeeshanabbasi/Desktop/pdf q&a chatbot/data/raw_pdfs/ISLRv2_corrected_June_2023.pdf",
      "total_pages": 615,
      "page": 460,
      "page_label": "461"
    }
  },
  {
    "text": "> summary (model)\n________________________________________________________________\nLayer (type) Output Shape Param #\n================================================================\nconv2d (Conv2D) (None, 32, 32, 32) 896\n________________________________________________________________\nmax_pooling2d (MaxPooling2D (None, 16, 16, 32) 0\n________________________________________________________________\nconv2d_1 (Conv2D) (None, 16, 16, 64) 18496",
    "metadata": {
      "producer": "macOS Version 14.4.1 (Build 23E224) Quartz PDFContext",
      "creator": "LaTeX with hyperref",
      "creationdate": "D:20240401203932Z00'00'",
      "moddate": "D:20240401203932Z00'00'",
      "source": "/Users/zeeshanabbasi/Desktop/pdf q&a chatbot/data/raw_pdfs/ISLRv2_corrected_June_2023.pdf",
      "total_pages": 615,
      "page": 460,
      "page_label": "461"
    }
  },
  {
    "text": "conv2d_1 (Conv2D) (None, 16, 16, 64) 18496\n________________________________________________________________\nmax_pooling2d_1 (MaxPooling (None, 8, 8, 64) 0\n________________________________________________________________\nconv2d_2 (Conv2D) (None, 8, 8, 128) 73856\n________________________________________________________________\nmax_pooling2d_2 (MaxPooling (None, 4, 4, 128) 0\n________________________________________________________________\nconv2d_3 (Conv2D) (None, 4, 4, 256) 295168",
    "metadata": {
      "producer": "macOS Version 14.4.1 (Build 23E224) Quartz PDFContext",
      "creator": "LaTeX with hyperref",
      "creationdate": "D:20240401203932Z00'00'",
      "moddate": "D:20240401203932Z00'00'",
      "source": "/Users/zeeshanabbasi/Desktop/pdf q&a chatbot/data/raw_pdfs/ISLRv2_corrected_June_2023.pdf",
      "total_pages": 615,
      "page": 460,
      "page_label": "461"
    }
  },
  {
    "text": "conv2d_3 (Conv2D) (None, 4, 4, 256) 295168\n________________________________________________________________\nmax_pooling2d_3 (MaxPooling (None, 2, 2, 256) 0\n________________________________________________________________\nflatten (Flatten) (None, 1024) 0\n________________________________________________________________\ndropout (Dropout) (None, 1024) 0\n________________________________________________________________\ndense (Dense) (None, 512) 524800",
    "metadata": {
      "producer": "macOS Version 14.4.1 (Build 23E224) Quartz PDFContext",
      "creator": "LaTeX with hyperref",
      "creationdate": "D:20240401203932Z00'00'",
      "moddate": "D:20240401203932Z00'00'",
      "source": "/Users/zeeshanabbasi/Desktop/pdf q&a chatbot/data/raw_pdfs/ISLRv2_corrected_June_2023.pdf",
      "total_pages": 615,
      "page": 460,
      "page_label": "461"
    }
  },
  {
    "text": "dense (Dense) (None, 512) 524800\n________________________________________________________________\ndense_1 (Dense) (None, 100) 51300\n================================================================\nTotal params: 964,516\nTrainable params: 964,516\nNon-trainable params: 0\nNotice that we used thepadding = \"same\" argument tolayer_conv_2D(), layer_conv_2D()\nwhich ensures that the output channels have the same dimension as the\ninput channels. There are 32 channels in the first hidden layer, in contrast",
    "metadata": {
      "producer": "macOS Version 14.4.1 (Build 23E224) Quartz PDFContext",
…
